…
I0731 08:48:23.064358 17672 net.cpp:322] The NetState phase (0) differed from the phase (1) specified by a rule in layer accuracy/top5
I0731 08:48:23.064512 17672 net.cpp:58] Initializing net from parameters: 
name: "VGG_ILSVRC_16_layers"
state {
  phase: TRAIN
  level: 0
  stage: ""
}
layer {
  name: "data"
  type: "Data"
  top: "data"
  top: "label"
  include {
    phase: TRAIN
  }
  transform_param {
    mirror: false
    crop_size: 224
    mean_value: 104
    mean_value: 117
    mean_value: 123
  }
  data_param {
    source: "/home/skyrus/work/sandbox/distracteddriver/train_db"
    batch_size: 8
    backend: LMDB
  }
}
layer {
  name: "conv1_1"
  type: "Convolution"
  bottom: "data"
  top: "conv1_1"
  param {
    lr_mult: 1
    decay_mult: 1
  }
  param {
    lr_mult: 2
    decay_mult: 0
  }
  convolution_param {
    num_output: 64
    pad: 1
    kernel_size: 3
  }
}
layer {
  name: "relu1_1"
  type: "ReLU"
  bottom: "conv1_1"
  top: "conv1_1"
}
layer {
  name: "conv1_2"
  type: "Convolution"
  bottom: "conv1_1"
  top: "conv1_2"
  param {
    lr_mult: 1
    decay_mult: 1
  }
  param {
    lr_mult: 2
    decay_mult: 0
  }
  convolution_param {
    num_output: 64
    pad: 1
    kernel_size: 3
  }
}
layer {
  name: "relu1_2"
  type: "ReLU"
  bottom: "conv1_2"
  top: "conv1_2"
}
layer {
  name: "pool1"
  type: "Pooling"
  bottom: "conv1_2"
  top: "pool1"
  pooling_param {
    pool: MAX
    kernel_size: 2
    stride: 2
  }
}
layer {
  name: "conv2_1"
  type: "Convolution"
  bottom: "pool1"
  top: "conv2_1"
  param {
    lr_mult: 1
    decay_mult: 1
  }
  param {
    lr_mult: 2
    decay_mult: 0
  }
  convolution_param {
    num_output: 128
    pad: 1
    kernel_size: 3
  }
}
layer {
  name: "relu2_1"
  type: "ReLU"
  bottom: "conv2_1"
  top: "conv2_1"
}
layer {
  name: "conv2_2"
  type: "Convolution"
  bottom: "conv2_1"
  top: "conv2_2"
  param {
    lr_mult: 1
    decay_mult: 1
  }
  param {
    lr_mult: 2
    decay_mult: 0
  }
  convolution_param {
    num_output: 128
    pad: 1
    kernel_size: 3
  }
}
layer {
  name: "relu2_2"
  type: "ReLU"
  bottom: "conv2_2"
  top: "conv2_2"
}
layer {
  name: "pool2"
  type: "Pooling"
  bottom: "conv2_2"
  top: "pool2"
  pooling_param {
    pool: MAX
    kernel_size: 2
    stride: 2
  }
}
layer {
  name: "conv3_1"
  type: "Convolution"
  bottom: "pool2"
  top: "conv3_1"
  param {
    lr_mult: 1
    decay_mult: 1
  }
  param {
    lr_mult: 2
    decay_mult: 0
  }
  convolution_param {
    num_output: 256
    pad: 1
    kernel_size: 3
  }
}
layer {
  name: "relu3_1"
  type: "ReLU"
  bottom: "conv3_1"
  top: "conv3_1"
}
layer {
  name: "conv3_2"
  type: "Convolution"
  bottom: "conv3_1"
  top: "conv3_2"
  param {
    lr_mult: 1
    decay_mult: 1
  }
  param {
    lr_mult: 2
    decay_mult: 0
  }
  convolution_param {
    num_output: 256
    pad: 1
    kernel_size: 3
  }
}
layer {
  name: "relu3_2"
  type: "ReLU"
  bottom: "conv3_2"
  top: "conv3_2"
}
layer {
  name: "conv3_3"
  type: "Convolution"
  bottom: "conv3_2"
  top: "conv3_3"
  param {
    lr_mult: 1
    decay_mult: 1
  }
  param {
    lr_mult: 2
    decay_mult: 0
  }
  convolution_param {
    num_output: 256
    pad: 1
    kernel_size: 3
  }
}
layer {
  name: "relu3_3"
  type: "ReLU"
  bottom: "conv3_3"
  top: "conv3_3"
}
layer {
  name: "pool3"
  type: "Pooling"
  bottom: "conv3_3"
  top: "pool3"
  pooling_param {
    pool: MAX
    kernel_size: 2
    stride: 2
  }
}
layer {
  name: "conv4_1"
  type: "Convolution"
  bottom: "pool3"
  top: "conv4_1"
  param {
    lr_mult: 1
    decay_mult: 1
  }
  param {
    lr_mult: 2
    decay_mult: 0
  }
  convolution_param {
    num_output: 512
    pad: 1
    kernel_size: 3
  }
}
layer {
  name: "relu4_1"
  type: "ReLU"
  bottom: "conv4_1"
  top: "conv4_1"
}
layer {
  name: "conv4_2"
  type: "Convolution"
  bottom: "conv4_1"
  top: "conv4_2"
  param {
    lr_mult: 1
    decay_mult: 1
  }
  param {
    lr_mult: 2
    decay_mult: 0
  }
  convolution_param {
    num_output: 512
    pad: 1
    kernel_size: 3
  }
}
layer {
  name: "relu4_2"
  type: "ReLU"
  bottom: "conv4_2"
  top: "conv4_2"
}
layer {
  name: "conv4_3"
  type: "Convolution"
  bottom: "conv4_2"
  top: "conv4_3"
  param {
    lr_mult: 1
    decay_mult: 1
  }
  param {
    lr_mult: 2
    decay_mult: 0
  }
  convolution_param {
    num_output: 512
    pad: 1
    kernel_size: 3
  }
}
layer {
  name: "relu4_3"
  type: "ReLU"
  bottom: "conv4_3"
  top: "conv4_3"
}
layer {
  name: "pool4"
  type: "Pooling"
  bottom: "conv4_3"
  top: "pool4"
  pooling_param {
    pool: MAX
    kernel_size: 2
    stride: 2
  }
}
layer {
  name: "conv5_1"
  type: "Convolution"
  bottom: "pool4"
  top: "conv5_1"
  param {
    lr_mult: 1
    decay_mult: 1
  }
  param {
    lr_mult: 2
    decay_mult: 0
  }
  convolution_param {
    num_output: 512
    pad: 1
    kernel_size: 3
  }
}
layer {
  name: "relu5_1"
  type: "ReLU"
  bottom: "conv5_1"
  top: "conv5_1"
}
layer {
  name: "conv5_2"
  type: "Convolution"
  bottom: "conv5_1"
  top: "conv5_2"
  param {
    lr_mult: 1
    decay_mult: 1
  }
  param {
    lr_mult: 2
    decay_mult: 0
  }
  convolution_param {
    num_output: 512
    pad: 1
    kernel_size: 3
  }
}
layer {
  name: "relu5_2"
  type: "ReLU"
  bottom: "conv5_2"
  top: "conv5_2"
}
layer {
  name: "conv5_3"
  type: "Convolution"
  bottom: "conv5_2"
  top: "conv5_3"
  param {
    lr_mult: 1
    decay_mult: 1
  }
  param {
    lr_mult: 2
    decay_mult: 0
  }
  convolution_param {
    num_output: 512
    pad: 1
    kernel_size: 3
  }
}
layer {
  name: "relu5_3"
  type: "ReLU"
  bottom: "conv5_3"
  top: "conv5_3"
}
layer {
  name: "pool5"
  type: "Pooling"
  bottom: "conv5_3"
  top: "pool5"
  pooling_param {
    pool: MAX
    kernel_size: 2
    stride: 2
  }
}
layer {
  name: "fc6"
  type: "InnerProduct"
  bottom: "pool5"
  top: "fc6"
  param {
    lr_mult: 1
    decay_mult: 1
  }
  param {
    lr_mult: 2
    decay_mult: 0
  }
  inner_product_param {
    num_output: 4096
  }
}
layer {
  name: "relu6"
  type: "ReLU"
  bottom: "fc6"
  top: "fc6"
}
layer {
  name: "drop6"
  type: "Dropout"
  bottom: "fc6"
  top: "fc6"
  dropout_param {
    dropout_ratio: 0.5
  }
}
layer {
  name: "fc7"
  type: "InnerProduct"
  bottom: "fc6"
  top: "fc7"
  param {
    lr_mult: 1
    decay_mult: 1
  }
  param {
    lr_mult: 2
    decay_mult: 0
  }
  inner_product_param {
    num_output: 4096
  }
}
layer {
  name: "relu7"
  type: "ReLU"
  bottom: "fc7"
  top: "fc7"
}
layer {
  name: "drop7"
  type: "Dropout"
  bottom: "fc7"
  top: "fc7"
  dropout_param {
    dropout_ratio: 0.5
  }
}
layer {
  name: "fc8_10"
  type: "InnerProduct"
  bottom: "fc7"
  top: "fc8_10"
  param {
    lr_mult: 1
    decay_mult: 1
  }
  param {
    lr_mult: 2
    decay_mult: 0
  }
  inner_product_param {
    num_output: 10
  }
}
layer {
  name: "loss"
  type: "SoftmaxWithLoss"
  bottom: "fc8_10"
  bottom: "label"
  top: "loss/loss"
}
I0731 08:48:23.064679 17672 layer_factory.hpp:77] Creating layer data
I0731 08:48:23.065137 17672 net.cpp:100] Creating Layer data
I0731 08:48:23.065150 17672 net.cpp:408] data -> data
I0731 08:48:23.065178 17672 net.cpp:408] data -> label
I0731 08:48:23.065779 17678 db_lmdb.cpp:35] Opened lmdb /home/skyrus/work/sandbox/distracteddriver/train_db
I0731 08:48:23.072005 17672 data_layer.cpp:41] output data size: 8,3,224,224
I0731 08:48:23.077464 17672 net.cpp:150] Setting up data
I0731 08:48:23.077486 17672 net.cpp:157] Top shape: 8 3 224 224 (1204224)
I0731 08:48:23.077491 17672 net.cpp:157] Top shape: 8 (8)
I0731 08:48:23.077492 17672 net.cpp:165] Memory required for data: 4816928
I0731 08:48:23.077500 17672 layer_factory.hpp:77] Creating layer conv1_1
I0731 08:48:23.077522 17672 net.cpp:100] Creating Layer conv1_1
I0731 08:48:23.077530 17672 net.cpp:434] conv1_1 <- data
I0731 08:48:23.077544 17672 net.cpp:408] conv1_1 -> conv1_1
I0731 08:48:23.078315 17672 net.cpp:150] Setting up conv1_1
I0731 08:48:23.078323 17672 net.cpp:157] Top shape: 8 64 224 224 (25690112)
I0731 08:48:23.078325 17672 net.cpp:165] Memory required for data: 107577376
I0731 08:48:23.078336 17672 layer_factory.hpp:77] Creating layer relu1_1
I0731 08:48:23.078346 17672 net.cpp:100] Creating Layer relu1_1
I0731 08:48:23.078349 17672 net.cpp:434] relu1_1 <- conv1_1
I0731 08:48:23.078356 17672 net.cpp:395] relu1_1 -> conv1_1 (in-place)
I0731 08:48:23.078366 17672 net.cpp:150] Setting up relu1_1
I0731 08:48:23.078372 17672 net.cpp:157] Top shape: 8 64 224 224 (25690112)
I0731 08:48:23.078377 17672 net.cpp:165] Memory required for data: 210337824
I0731 08:48:23.078379 17672 layer_factory.hpp:77] Creating layer conv1_2
I0731 08:48:23.078387 17672 net.cpp:100] Creating Layer conv1_2
I0731 08:48:23.078392 17672 net.cpp:434] conv1_2 <- conv1_1
I0731 08:48:23.078397 17672 net.cpp:408] conv1_2 -> conv1_2
I0731 08:48:23.079013 17672 net.cpp:150] Setting up conv1_2
I0731 08:48:23.079020 17672 net.cpp:157] Top shape: 8 64 224 224 (25690112)
I0731 08:48:23.079023 17672 net.cpp:165] Memory required for data: 313098272
I0731 08:48:23.079030 17672 layer_factory.hpp:77] Creating layer relu1_2
I0731 08:48:23.079035 17672 net.cpp:100] Creating Layer relu1_2
I0731 08:48:23.079040 17672 net.cpp:434] relu1_2 <- conv1_2
I0731 08:48:23.079047 17672 net.cpp:395] relu1_2 -> conv1_2 (in-place)
I0731 08:48:23.079054 17672 net.cpp:150] Setting up relu1_2
I0731 08:48:23.079059 17672 net.cpp:157] Top shape: 8 64 224 224 (25690112)
I0731 08:48:23.079062 17672 net.cpp:165] Memory required for data: 415858720
I0731 08:48:23.079066 17672 layer_factory.hpp:77] Creating layer pool1
I0731 08:48:23.079072 17672 net.cpp:100] Creating Layer pool1
I0731 08:48:23.079076 17672 net.cpp:434] pool1 <- conv1_2
I0731 08:48:23.079082 17672 net.cpp:408] pool1 -> pool1
I0731 08:48:23.079120 17672 net.cpp:150] Setting up pool1
I0731 08:48:23.079128 17672 net.cpp:157] Top shape: 8 64 112 112 (6422528)
I0731 08:48:23.079129 17672 net.cpp:165] Memory required for data: 441548832
I0731 08:48:23.079133 17672 layer_factory.hpp:77] Creating layer conv2_1
I0731 08:48:23.079139 17672 net.cpp:100] Creating Layer conv2_1
I0731 08:48:23.079144 17672 net.cpp:434] conv2_1 <- pool1
I0731 08:48:23.079150 17672 net.cpp:408] conv2_1 -> conv2_1
I0731 08:48:23.079869 17672 net.cpp:150] Setting up conv2_1
I0731 08:48:23.079879 17672 net.cpp:157] Top shape: 8 128 112 112 (12845056)
I0731 08:48:23.079880 17672 net.cpp:165] Memory required for data: 492929056
I0731 08:48:23.079888 17672 layer_factory.hpp:77] Creating layer relu2_1
I0731 08:48:23.079900 17672 net.cpp:100] Creating Layer relu2_1
I0731 08:48:23.079906 17672 net.cpp:434] relu2_1 <- conv2_1
I0731 08:48:23.079912 17672 net.cpp:395] relu2_1 -> conv2_1 (in-place)
I0731 08:48:23.079919 17672 net.cpp:150] Setting up relu2_1
I0731 08:48:23.079924 17672 net.cpp:157] Top shape: 8 128 112 112 (12845056)
I0731 08:48:23.079927 17672 net.cpp:165] Memory required for data: 544309280
I0731 08:48:23.079931 17672 layer_factory.hpp:77] Creating layer conv2_2
I0731 08:48:23.079941 17672 net.cpp:100] Creating Layer conv2_2
I0731 08:48:23.079943 17672 net.cpp:434] conv2_2 <- conv2_1
I0731 08:48:23.079946 17672 net.cpp:408] conv2_2 -> conv2_2
I0731 08:48:23.080145 17672 net.cpp:150] Setting up conv2_2
I0731 08:48:23.080160 17672 net.cpp:157] Top shape: 8 128 112 112 (12845056)
I0731 08:48:23.080163 17672 net.cpp:165] Memory required for data: 595689504
I0731 08:48:23.080168 17672 layer_factory.hpp:77] Creating layer relu2_2
I0731 08:48:23.080170 17672 net.cpp:100] Creating Layer relu2_2
I0731 08:48:23.080173 17672 net.cpp:434] relu2_2 <- conv2_2
I0731 08:48:23.080176 17672 net.cpp:395] relu2_2 -> conv2_2 (in-place)
I0731 08:48:23.080180 17672 net.cpp:150] Setting up relu2_2
I0731 08:48:23.080183 17672 net.cpp:157] Top shape: 8 128 112 112 (12845056)
I0731 08:48:23.080185 17672 net.cpp:165] Memory required for data: 647069728
I0731 08:48:23.080188 17672 layer_factory.hpp:77] Creating layer pool2
I0731 08:48:23.080191 17672 net.cpp:100] Creating Layer pool2
I0731 08:48:23.080193 17672 net.cpp:434] pool2 <- conv2_2
I0731 08:48:23.080196 17672 net.cpp:408] pool2 -> pool2
I0731 08:48:23.080219 17672 net.cpp:150] Setting up pool2
I0731 08:48:23.080224 17672 net.cpp:157] Top shape: 8 128 56 56 (3211264)
I0731 08:48:23.080225 17672 net.cpp:165] Memory required for data: 659914784
I0731 08:48:23.080227 17672 layer_factory.hpp:77] Creating layer conv3_1
I0731 08:48:23.080232 17672 net.cpp:100] Creating Layer conv3_1
I0731 08:48:23.080235 17672 net.cpp:434] conv3_1 <- pool2
I0731 08:48:23.080238 17672 net.cpp:408] conv3_1 -> conv3_1
I0731 08:48:23.080804 17672 net.cpp:150] Setting up conv3_1
I0731 08:48:23.080812 17672 net.cpp:157] Top shape: 8 256 56 56 (6422528)
I0731 08:48:23.080814 17672 net.cpp:165] Memory required for data: 685604896
I0731 08:48:23.080821 17672 layer_factory.hpp:77] Creating layer relu3_1
I0731 08:48:23.080826 17672 net.cpp:100] Creating Layer relu3_1
I0731 08:48:23.080828 17672 net.cpp:434] relu3_1 <- conv3_1
I0731 08:48:23.080832 17672 net.cpp:395] relu3_1 -> conv3_1 (in-place)
I0731 08:48:23.080835 17672 net.cpp:150] Setting up relu3_1
I0731 08:48:23.080838 17672 net.cpp:157] Top shape: 8 256 56 56 (6422528)
I0731 08:48:23.080840 17672 net.cpp:165] Memory required for data: 711295008
I0731 08:48:23.080842 17672 layer_factory.hpp:77] Creating layer conv3_2
I0731 08:48:23.080847 17672 net.cpp:100] Creating Layer conv3_2
I0731 08:48:23.080849 17672 net.cpp:434] conv3_2 <- conv3_1
I0731 08:48:23.080854 17672 net.cpp:408] conv3_2 -> conv3_2
I0731 08:48:23.081763 17672 net.cpp:150] Setting up conv3_2
I0731 08:48:23.081771 17672 net.cpp:157] Top shape: 8 256 56 56 (6422528)
I0731 08:48:23.081773 17672 net.cpp:165] Memory required for data: 736985120
I0731 08:48:23.081779 17672 layer_factory.hpp:77] Creating layer relu3_2
I0731 08:48:23.081781 17672 net.cpp:100] Creating Layer relu3_2
I0731 08:48:23.081784 17672 net.cpp:434] relu3_2 <- conv3_2
I0731 08:48:23.081789 17672 net.cpp:395] relu3_2 -> conv3_2 (in-place)
I0731 08:48:23.081792 17672 net.cpp:150] Setting up relu3_2
I0731 08:48:23.081795 17672 net.cpp:157] Top shape: 8 256 56 56 (6422528)
I0731 08:48:23.081797 17672 net.cpp:165] Memory required for data: 762675232
I0731 08:48:23.081799 17672 layer_factory.hpp:77] Creating layer conv3_3
I0731 08:48:23.081804 17672 net.cpp:100] Creating Layer conv3_3
I0731 08:48:23.081805 17672 net.cpp:434] conv3_3 <- conv3_2
I0731 08:48:23.081810 17672 net.cpp:408] conv3_3 -> conv3_3
I0731 08:48:23.082715 17672 net.cpp:150] Setting up conv3_3
I0731 08:48:23.082722 17672 net.cpp:157] Top shape: 8 256 56 56 (6422528)
I0731 08:48:23.082725 17672 net.cpp:165] Memory required for data: 788365344
I0731 08:48:23.082729 17672 layer_factory.hpp:77] Creating layer relu3_3
I0731 08:48:23.082736 17672 net.cpp:100] Creating Layer relu3_3
I0731 08:48:23.082737 17672 net.cpp:434] relu3_3 <- conv3_3
I0731 08:48:23.082741 17672 net.cpp:395] relu3_3 -> conv3_3 (in-place)
I0731 08:48:23.082746 17672 net.cpp:150] Setting up relu3_3
I0731 08:48:23.082748 17672 net.cpp:157] Top shape: 8 256 56 56 (6422528)
I0731 08:48:23.082751 17672 net.cpp:165] Memory required for data: 814055456
I0731 08:48:23.082752 17672 layer_factory.hpp:77] Creating layer pool3
I0731 08:48:23.082757 17672 net.cpp:100] Creating Layer pool3
I0731 08:48:23.082759 17672 net.cpp:434] pool3 <- conv3_3
I0731 08:48:23.082772 17672 net.cpp:408] pool3 -> pool3
I0731 08:48:23.082797 17672 net.cpp:150] Setting up pool3
I0731 08:48:23.082801 17672 net.cpp:157] Top shape: 8 256 28 28 (1605632)
I0731 08:48:23.082803 17672 net.cpp:165] Memory required for data: 820477984
I0731 08:48:23.082805 17672 layer_factory.hpp:77] Creating layer conv4_1
I0731 08:48:23.082810 17672 net.cpp:100] Creating Layer conv4_1
I0731 08:48:23.082813 17672 net.cpp:434] conv4_1 <- pool3
I0731 08:48:23.082816 17672 net.cpp:408] conv4_1 -> conv4_1
I0731 08:48:23.085011 17672 net.cpp:150] Setting up conv4_1
I0731 08:48:23.085023 17672 net.cpp:157] Top shape: 8 512 28 28 (3211264)
I0731 08:48:23.085026 17672 net.cpp:165] Memory required for data: 833323040
I0731 08:48:23.085031 17672 layer_factory.hpp:77] Creating layer relu4_1
I0731 08:48:23.085036 17672 net.cpp:100] Creating Layer relu4_1
I0731 08:48:23.085038 17672 net.cpp:434] relu4_1 <- conv4_1
I0731 08:48:23.085042 17672 net.cpp:395] relu4_1 -> conv4_1 (in-place)
I0731 08:48:23.085047 17672 net.cpp:150] Setting up relu4_1
I0731 08:48:23.085050 17672 net.cpp:157] Top shape: 8 512 28 28 (3211264)
I0731 08:48:23.085052 17672 net.cpp:165] Memory required for data: 846168096
I0731 08:48:23.085054 17672 layer_factory.hpp:77] Creating layer conv4_2
I0731 08:48:23.085059 17672 net.cpp:100] Creating Layer conv4_2
I0731 08:48:23.085062 17672 net.cpp:434] conv4_2 <- conv4_1
I0731 08:48:23.085065 17672 net.cpp:408] conv4_2 -> conv4_2
I0731 08:48:23.088320 17672 net.cpp:150] Setting up conv4_2
I0731 08:48:23.088338 17672 net.cpp:157] Top shape: 8 512 28 28 (3211264)
I0731 08:48:23.088341 17672 net.cpp:165] Memory required for data: 859013152
I0731 08:48:23.088351 17672 layer_factory.hpp:77] Creating layer relu4_2
I0731 08:48:23.088358 17672 net.cpp:100] Creating Layer relu4_2
I0731 08:48:23.088361 17672 net.cpp:434] relu4_2 <- conv4_2
I0731 08:48:23.088366 17672 net.cpp:395] relu4_2 -> conv4_2 (in-place)
I0731 08:48:23.088371 17672 net.cpp:150] Setting up relu4_2
I0731 08:48:23.088374 17672 net.cpp:157] Top shape: 8 512 28 28 (3211264)
I0731 08:48:23.088376 17672 net.cpp:165] Memory required for data: 871858208
I0731 08:48:23.088378 17672 layer_factory.hpp:77] Creating layer conv4_3
I0731 08:48:23.088384 17672 net.cpp:100] Creating Layer conv4_3
I0731 08:48:23.088387 17672 net.cpp:434] conv4_3 <- conv4_2
I0731 08:48:23.088392 17672 net.cpp:408] conv4_3 -> conv4_3
I0731 08:48:23.092171 17672 net.cpp:150] Setting up conv4_3
I0731 08:48:23.092190 17672 net.cpp:157] Top shape: 8 512 28 28 (3211264)
I0731 08:48:23.092195 17672 net.cpp:165] Memory required for data: 884703264
I0731 08:48:23.092202 17672 layer_factory.hpp:77] Creating layer relu4_3
I0731 08:48:23.092211 17672 net.cpp:100] Creating Layer relu4_3
I0731 08:48:23.092214 17672 net.cpp:434] relu4_3 <- conv4_3
I0731 08:48:23.092226 17672 net.cpp:395] relu4_3 -> conv4_3 (in-place)
I0731 08:48:23.092237 17672 net.cpp:150] Setting up relu4_3
I0731 08:48:23.092243 17672 net.cpp:157] Top shape: 8 512 28 28 (3211264)
I0731 08:48:23.092247 17672 net.cpp:165] Memory required for data: 897548320
I0731 08:48:23.092250 17672 layer_factory.hpp:77] Creating layer pool4
I0731 08:48:23.092257 17672 net.cpp:100] Creating Layer pool4
I0731 08:48:23.092260 17672 net.cpp:434] pool4 <- conv4_3
I0731 08:48:23.092267 17672 net.cpp:408] pool4 -> pool4
I0731 08:48:23.092296 17672 net.cpp:150] Setting up pool4
I0731 08:48:23.092303 17672 net.cpp:157] Top shape: 8 512 14 14 (802816)
I0731 08:48:23.092306 17672 net.cpp:165] Memory required for data: 900759584
I0731 08:48:23.092310 17672 layer_factory.hpp:77] Creating layer conv5_1
I0731 08:48:23.092319 17672 net.cpp:100] Creating Layer conv5_1
I0731 08:48:23.092322 17672 net.cpp:434] conv5_1 <- pool4
I0731 08:48:23.092330 17672 net.cpp:408] conv5_1 -> conv5_1
I0731 08:48:23.095882 17672 net.cpp:150] Setting up conv5_1
I0731 08:48:23.095899 17672 net.cpp:157] Top shape: 8 512 14 14 (802816)
I0731 08:48:23.095902 17672 net.cpp:165] Memory required for data: 903970848
I0731 08:48:23.095907 17672 layer_factory.hpp:77] Creating layer relu5_1
I0731 08:48:23.095926 17672 net.cpp:100] Creating Layer relu5_1
I0731 08:48:23.095928 17672 net.cpp:434] relu5_1 <- conv5_1
I0731 08:48:23.095934 17672 net.cpp:395] relu5_1 -> conv5_1 (in-place)
I0731 08:48:23.095940 17672 net.cpp:150] Setting up relu5_1
I0731 08:48:23.095945 17672 net.cpp:157] Top shape: 8 512 14 14 (802816)
I0731 08:48:23.095947 17672 net.cpp:165] Memory required for data: 907182112
I0731 08:48:23.095949 17672 layer_factory.hpp:77] Creating layer conv5_2
I0731 08:48:23.095954 17672 net.cpp:100] Creating Layer conv5_2
I0731 08:48:23.095957 17672 net.cpp:434] conv5_2 <- conv5_1
I0731 08:48:23.095962 17672 net.cpp:408] conv5_2 -> conv5_2
I0731 08:48:23.099225 17672 net.cpp:150] Setting up conv5_2
I0731 08:48:23.099243 17672 net.cpp:157] Top shape: 8 512 14 14 (802816)
I0731 08:48:23.099246 17672 net.cpp:165] Memory required for data: 910393376
I0731 08:48:23.099251 17672 layer_factory.hpp:77] Creating layer relu5_2
I0731 08:48:23.099258 17672 net.cpp:100] Creating Layer relu5_2
I0731 08:48:23.099261 17672 net.cpp:434] relu5_2 <- conv5_2
I0731 08:48:23.099267 17672 net.cpp:395] relu5_2 -> conv5_2 (in-place)
I0731 08:48:23.099274 17672 net.cpp:150] Setting up relu5_2
I0731 08:48:23.099278 17672 net.cpp:157] Top shape: 8 512 14 14 (802816)
I0731 08:48:23.099280 17672 net.cpp:165] Memory required for data: 913604640
I0731 08:48:23.099282 17672 layer_factory.hpp:77] Creating layer conv5_3
I0731 08:48:23.099288 17672 net.cpp:100] Creating Layer conv5_3
I0731 08:48:23.099292 17672 net.cpp:434] conv5_3 <- conv5_2
I0731 08:48:23.099295 17672 net.cpp:408] conv5_3 -> conv5_3
I0731 08:48:23.102391 17672 net.cpp:150] Setting up conv5_3
I0731 08:48:23.102412 17672 net.cpp:157] Top shape: 8 512 14 14 (802816)
I0731 08:48:23.102414 17672 net.cpp:165] Memory required for data: 916815904
I0731 08:48:23.102421 17672 layer_factory.hpp:77] Creating layer relu5_3
I0731 08:48:23.102427 17672 net.cpp:100] Creating Layer relu5_3
I0731 08:48:23.102429 17672 net.cpp:434] relu5_3 <- conv5_3
I0731 08:48:23.102433 17672 net.cpp:395] relu5_3 -> conv5_3 (in-place)
I0731 08:48:23.102438 17672 net.cpp:150] Setting up relu5_3
I0731 08:48:23.102442 17672 net.cpp:157] Top shape: 8 512 14 14 (802816)
I0731 08:48:23.102442 17672 net.cpp:165] Memory required for data: 920027168
I0731 08:48:23.102444 17672 layer_factory.hpp:77] Creating layer pool5
I0731 08:48:23.102452 17672 net.cpp:100] Creating Layer pool5
I0731 08:48:23.102454 17672 net.cpp:434] pool5 <- conv5_3
I0731 08:48:23.102458 17672 net.cpp:408] pool5 -> pool5
I0731 08:48:23.102486 17672 net.cpp:150] Setting up pool5
I0731 08:48:23.102494 17672 net.cpp:157] Top shape: 8 512 7 7 (200704)
I0731 08:48:23.102495 17672 net.cpp:165] Memory required for data: 920829984
I0731 08:48:23.102497 17672 layer_factory.hpp:77] Creating layer fc6
I0731 08:48:23.102512 17672 net.cpp:100] Creating Layer fc6
I0731 08:48:23.102515 17672 net.cpp:434] fc6 <- pool5
I0731 08:48:23.102519 17672 net.cpp:408] fc6 -> fc6
I0731 08:48:23.232697 17672 net.cpp:150] Setting up fc6
I0731 08:48:23.232729 17672 net.cpp:157] Top shape: 8 4096 (32768)
I0731 08:48:23.232733 17672 net.cpp:165] Memory required for data: 920961056
I0731 08:48:23.232738 17672 layer_factory.hpp:77] Creating layer relu6
I0731 08:48:23.232748 17672 net.cpp:100] Creating Layer relu6
I0731 08:48:23.232751 17672 net.cpp:434] relu6 <- fc6
I0731 08:48:23.232758 17672 net.cpp:395] relu6 -> fc6 (in-place)
I0731 08:48:23.232765 17672 net.cpp:150] Setting up relu6
I0731 08:48:23.232769 17672 net.cpp:157] Top shape: 8 4096 (32768)
I0731 08:48:23.232772 17672 net.cpp:165] Memory required for data: 921092128
I0731 08:48:23.232774 17672 layer_factory.hpp:77] Creating layer drop6
I0731 08:48:23.232787 17672 net.cpp:100] Creating Layer drop6
I0731 08:48:23.232792 17672 net.cpp:434] drop6 <- fc6
I0731 08:48:23.232798 17672 net.cpp:395] drop6 -> fc6 (in-place)
I0731 08:48:23.232820 17672 net.cpp:150] Setting up drop6
I0731 08:48:23.232825 17672 net.cpp:157] Top shape: 8 4096 (32768)
I0731 08:48:23.232826 17672 net.cpp:165] Memory required for data: 921223200
I0731 08:48:23.232839 17672 layer_factory.hpp:77] Creating layer fc7
I0731 08:48:23.232847 17672 net.cpp:100] Creating Layer fc7
I0731 08:48:23.232851 17672 net.cpp:434] fc7 <- fc6
I0731 08:48:23.232856 17672 net.cpp:408] fc7 -> fc7
I0731 08:48:23.253789 17672 net.cpp:150] Setting up fc7
I0731 08:48:23.253823 17672 net.cpp:157] Top shape: 8 4096 (32768)
I0731 08:48:23.253825 17672 net.cpp:165] Memory required for data: 921354272
I0731 08:48:23.253830 17672 layer_factory.hpp:77] Creating layer relu7
I0731 08:48:23.253839 17672 net.cpp:100] Creating Layer relu7
I0731 08:48:23.253842 17672 net.cpp:434] relu7 <- fc7
I0731 08:48:23.253847 17672 net.cpp:395] relu7 -> fc7 (in-place)
I0731 08:48:23.253855 17672 net.cpp:150] Setting up relu7
I0731 08:48:23.253860 17672 net.cpp:157] Top shape: 8 4096 (32768)
I0731 08:48:23.253864 17672 net.cpp:165] Memory required for data: 921485344
I0731 08:48:23.253866 17672 layer_factory.hpp:77] Creating layer drop7
I0731 08:48:23.253877 17672 net.cpp:100] Creating Layer drop7
I0731 08:48:23.253882 17672 net.cpp:434] drop7 <- fc7
I0731 08:48:23.253888 17672 net.cpp:395] drop7 -> fc7 (in-place)
I0731 08:48:23.253913 17672 net.cpp:150] Setting up drop7
I0731 08:48:23.253918 17672 net.cpp:157] Top shape: 8 4096 (32768)
I0731 08:48:23.253921 17672 net.cpp:165] Memory required for data: 921616416
I0731 08:48:23.253922 17672 layer_factory.hpp:77] Creating layer fc8_10
I0731 08:48:23.253926 17672 net.cpp:100] Creating Layer fc8_10
I0731 08:48:23.253928 17672 net.cpp:434] fc8_10 <- fc7
I0731 08:48:23.253933 17672 net.cpp:408] fc8_10 -> fc8_10
I0731 08:48:23.254027 17672 net.cpp:150] Setting up fc8_10
I0731 08:48:23.254032 17672 net.cpp:157] Top shape: 8 10 (80)
I0731 08:48:23.254047 17672 net.cpp:165] Memory required for data: 921616736
I0731 08:48:23.254051 17672 layer_factory.hpp:77] Creating layer loss
I0731 08:48:23.254076 17672 net.cpp:100] Creating Layer loss
I0731 08:48:23.254079 17672 net.cpp:434] loss <- fc8_10
I0731 08:48:23.254083 17672 net.cpp:434] loss <- label
I0731 08:48:23.254089 17672 net.cpp:408] loss -> loss/loss
I0731 08:48:23.254104 17672 layer_factory.hpp:77] Creating layer loss
…
I0731 08:48:23.255108 17672 net.cpp:322] The NetState phase (1) differed from the phase (0) specified by a rule in layer data
I0731 08:48:23.255265 17672 net.cpp:58] Initializing net from parameters: 
name: "VGG_ILSVRC_16_layers"
state {
  phase: TEST
}
layer {
  name: "data"
  type: "Data"
  top: "data"
  top: "label"
  include {
    phase: TEST
  }
  transform_param {
    mirror: false
    crop_size: 224
    mean_value: 104
    mean_value: 117
    mean_value: 123
  }
  data_param {
    source: "/home/skyrus/work/sandbox/distracteddriver/test_db"
    batch_size: 32
    backend: LMDB
  }
}
layer {
  name: "conv1_1"
  type: "Convolution"
  bottom: "data"
  top: "conv1_1"
  param {
    lr_mult: 1
    decay_mult: 1
  }
  param {
    lr_mult: 2
    decay_mult: 0
  }
  convolution_param {
    num_output: 64
    pad: 1
    kernel_size: 3
  }
}
layer {
  name: "relu1_1"
  type: "ReLU"
  bottom: "conv1_1"
  top: "conv1_1"
}
layer {
  name: "conv1_2"
  type: "Convolution"
  bottom: "conv1_1"
  top: "conv1_2"
  param {
    lr_mult: 1
    decay_mult: 1
  }
  param {
    lr_mult: 2
    decay_mult: 0
  }
  convolution_param {
    num_output: 64
    pad: 1
    kernel_size: 3
  }
}
layer {
  name: "relu1_2"
  type: "ReLU"
  bottom: "conv1_2"
  top: "conv1_2"
}
layer {
  name: "pool1"
  type: "Pooling"
  bottom: "conv1_2"
  top: "pool1"
  pooling_param {
    pool: MAX
    kernel_size: 2
    stride: 2
  }
}
layer {
  name: "conv2_1"
  type: "Convolution"
  bottom: "pool1"
  top: "conv2_1"
  param {
    lr_mult: 1
    decay_mult: 1
  }
  param {
    lr_mult: 2
    decay_mult: 0
  }
  convolution_param {
    num_output: 128
    pad: 1
    kernel_size: 3
  }
}
layer {
  name: "relu2_1"
  type: "ReLU"
  bottom: "conv2_1"
  top: "conv2_1"
}
layer {
  name: "conv2_2"
  type: "Convolution"
  bottom: "conv2_1"
  top: "conv2_2"
  param {
    lr_mult: 1
    decay_mult: 1
  }
  param {
    lr_mult: 2
    decay_mult: 0
  }
  convolution_param {
    num_output: 128
    pad: 1
    kernel_size: 3
  }
}
layer {
  name: "relu2_2"
  type: "ReLU"
  bottom: "conv2_2"
  top: "conv2_2"
}
layer {
  name: "pool2"
  type: "Pooling"
  bottom: "conv2_2"
  top: "pool2"
  pooling_param {
    pool: MAX
    kernel_size: 2
    stride: 2
  }
}
layer {
  name: "conv3_1"
  type: "Convolution"
  bottom: "pool2"
  top: "conv3_1"
  param {
    lr_mult: 1
    decay_mult: 1
  }
  param {
    lr_mult: 2
    decay_mult: 0
  }
  convolution_param {
    num_output: 256
    pad: 1
    kernel_size: 3
  }
}
layer {
  name: "relu3_1"
  type: "ReLU"
  bottom: "conv3_1"
  top: "conv3_1"
}
layer {
  name: "conv3_2"
  type: "Convolution"
  bottom: "conv3_1"
  top: "conv3_2"
  param {
    lr_mult: 1
    decay_mult: 1
  }
  param {
    lr_mult: 2
    decay_mult: 0
  }
  convolution_param {
    num_output: 256
    pad: 1
    kernel_size: 3
  }
}
layer {
  name: "relu3_2"
  type: "ReLU"
  bottom: "conv3_2"
  top: "conv3_2"
}
layer {
  name: "conv3_3"
  type: "Convolution"
  bottom: "conv3_2"
  top: "conv3_3"
  param {
    lr_mult: 1
    decay_mult: 1
  }
  param {
    lr_mult: 2
    decay_mult: 0
  }
  convolution_param {
    num_output: 256
    pad: 1
    kernel_size: 3
  }
}
layer {
  name: "relu3_3"
  type: "ReLU"
  bottom: "conv3_3"
  top: "conv3_3"
}
layer {
  name: "pool3"
  type: "Pooling"
  bottom: "conv3_3"
  top: "pool3"
  pooling_param {
    pool: MAX
    kernel_size: 2
    stride: 2
  }
}
layer {
  name: "conv4_1"
  type: "Convolution"
  bottom: "pool3"
  top: "conv4_1"
  param {
    lr_mult: 1
    decay_mult: 1
  }
  param {
    lr_mult: 2
    decay_mult: 0
  }
  convolution_param {
    num_output: 512
    pad: 1
    kernel_size: 3
  }
}
layer {
  name: "relu4_1"
  type: "ReLU"
  bottom: "conv4_1"
  top: "conv4_1"
}
layer {
  name: "conv4_2"
  type: "Convolution"
  bottom: "conv4_1"
  top: "conv4_2"
  param {
    lr_mult: 1
    decay_mult: 1
  }
  param {
    lr_mult: 2
    decay_mult: 0
  }
  convolution_param {
    num_output: 512
    pad: 1
    kernel_size: 3
  }
}
layer {
  name: "relu4_2"
  type: "ReLU"
  bottom: "conv4_2"
  top: "conv4_2"
}
layer {
  name: "conv4_3"
  type: "Convolution"
  bottom: "conv4_2"
  top: "conv4_3"
  param {
    lr_mult: 1
    decay_mult: 1
  }
  param {
    lr_mult: 2
    decay_mult: 0
  }
  convolution_param {
    num_output: 512
    pad: 1
    kernel_size: 3
  }
}
layer {
  name: "relu4_3"
  type: "ReLU"
  bottom: "conv4_3"
  top: "conv4_3"
}
layer {
  name: "pool4"
  type: "Pooling"
  bottom: "conv4_3"
  top: "pool4"
  pooling_param {
    pool: MAX
    kernel_size: 2
    stride: 2
  }
}
layer {
  name: "conv5_1"
  type: "Convolution"
  bottom: "pool4"
  top: "conv5_1"
  param {
    lr_mult: 1
    decay_mult: 1
  }
  param {
    lr_mult: 2
    decay_mult: 0
  }
  convolution_param {
    num_output: 512
    pad: 1
    kernel_size: 3
  }
}
layer {
  name: "relu5_1"
  type: "ReLU"
  bottom: "conv5_1"
  top: "conv5_1"
}
layer {
  name: "conv5_2"
  type: "Convolution"
  bottom: "conv5_1"
  top: "conv5_2"
  param {
    lr_mult: 1
    decay_mult: 1
  }
  param {
    lr_mult: 2
    decay_mult: 0
  }
  convolution_param {
    num_output: 512
    pad: 1
    kernel_size: 3
  }
}
layer {
  name: "relu5_2"
  type: "ReLU"
  bottom: "conv5_2"
  top: "conv5_2"
}
layer {
  name: "conv5_3"
  type: "Convolution"
  bottom: "conv5_2"
  top: "conv5_3"
  param {
    lr_mult: 1
    decay_mult: 1
  }
  param {
    lr_mult: 2
    decay_mult: 0
  }
  convolution_param {
    num_output: 512
    pad: 1
    kernel_size: 3
  }
}
layer {
  name: "relu5_3"
  type: "ReLU"
  bottom: "conv5_3"
  top: "conv5_3"
}
layer {
  name: "pool5"
  type: "Pooling"
  bottom: "conv5_3"
  top: "pool5"
  pooling_param {
    pool: MAX
    kernel_size: 2
    stride: 2
  }
}
layer {
  name: "fc6"
  type: "InnerProduct"
  bottom: "pool5"
  top: "fc6"
  param {
    lr_mult: 1
    decay_mult: 1
  }
  param {
    lr_mult: 2
    decay_mult: 0
  }
  inner_product_param {
    num_output: 4096
  }
}
layer {
  name: "relu6"
  type: "ReLU"
  bottom: "fc6"
  top: "fc6"
}
layer {
  name: "drop6"
  type: "Dropout"
  bottom: "fc6"
  top: "fc6"
  dropout_param {
    dropout_ratio: 0.5
  }
}
layer {
  name: "fc7"
  type: "InnerProduct"
  bottom: "fc6"
  top: "fc7"
  param {
    lr_mult: 1
    decay_mult: 1
  }
  param {
    lr_mult: 2
    decay_mult: 0
  }
  inner_product_param {
    num_output: 4096
  }
}
layer {
  name: "relu7"
  type: "ReLU"
  bottom: "fc7"
  top: "fc7"
}
layer {
  name: "drop7"
  type: "Dropout"
  bottom: "fc7"
  top: "fc7"
  dropout_param {
    dropout_ratio: 0.5
  }
}
layer {
  name: "fc8_10"
  type: "InnerProduct"
  bottom: "fc7"
  top: "fc8_10"
  param {
    lr_mult: 1
    decay_mult: 1
  }
  param {
    lr_mult: 2
    decay_mult: 0
  }
  inner_product_param {
    num_output: 10
  }
}
layer {
  name: "loss"
  type: "SoftmaxWithLoss"
  bottom: "fc8_10"
  bottom: "label"
  top: "loss/loss"
}
layer {
  name: "accuracy/top1"
  type: "Accuracy"
  bottom: "fc8_10"
  bottom: "label"
  top: "accuracy@1"
  include {
    phase: TEST
  }
  accuracy_param {
    top_k: 1
  }
}
layer {
  name: "accuracy/top5"
  type: "Accuracy"
  bottom: "fc8_10"
  bottom: "label"
  top: "accuracy@5"
  include {
    phase: TEST
  }
  accuracy_param {
    top_k: 5
  }
}
I0731 08:48:23.255395 17672 layer_factory.hpp:77] Creating layer data
I0731 08:48:23.255447 17672 net.cpp:100] Creating Layer data
I0731 08:48:23.255452 17672 net.cpp:408] data -> data
I0731 08:48:23.255458 17672 net.cpp:408] data -> label
I0731 08:48:23.256093 17680 db_lmdb.cpp:35] Opened lmdb /home/skyrus/work/sandbox/distracteddriver/test_db
I0731 08:48:23.256284 17672 data_layer.cpp:41] output data size: 32,3,224,224
I0731 08:48:23.275909 17672 net.cpp:150] Setting up data
I0731 08:48:23.275931 17672 net.cpp:157] Top shape: 32 3 224 224 (4816896)
I0731 08:48:23.275935 17672 net.cpp:157] Top shape: 32 (32)
I0731 08:48:23.275938 17672 net.cpp:165] Memory required for data: 19267712
I0731 08:48:23.275941 17672 layer_factory.hpp:77] Creating layer label_data_1_split
I0731 08:48:23.275957 17672 net.cpp:100] Creating Layer label_data_1_split
I0731 08:48:23.275960 17672 net.cpp:434] label_data_1_split <- label
I0731 08:48:23.275965 17672 net.cpp:408] label_data_1_split -> label_data_1_split_0
I0731 08:48:23.275974 17672 net.cpp:408] label_data_1_split -> label_data_1_split_1
I0731 08:48:23.275976 17672 net.cpp:408] label_data_1_split -> label_data_1_split_2
I0731 08:48:23.276037 17672 net.cpp:150] Setting up label_data_1_split
I0731 08:48:23.276043 17672 net.cpp:157] Top shape: 32 (32)
I0731 08:48:23.276046 17672 net.cpp:157] Top shape: 32 (32)
I0731 08:48:23.276048 17672 net.cpp:157] Top shape: 32 (32)
I0731 08:48:23.276051 17672 net.cpp:165] Memory required for data: 19268096
I0731 08:48:23.276053 17672 layer_factory.hpp:77] Creating layer conv1_1
I0731 08:48:23.276062 17672 net.cpp:100] Creating Layer conv1_1
I0731 08:48:23.276064 17672 net.cpp:434] conv1_1 <- data
I0731 08:48:23.276068 17672 net.cpp:408] conv1_1 -> conv1_1
I0731 08:48:23.276259 17672 net.cpp:150] Setting up conv1_1
I0731 08:48:23.276265 17672 net.cpp:157] Top shape: 32 64 224 224 (102760448)
I0731 08:48:23.276268 17672 net.cpp:165] Memory required for data: 430309888
I0731 08:48:23.276275 17672 layer_factory.hpp:77] Creating layer relu1_1
I0731 08:48:23.276280 17672 net.cpp:100] Creating Layer relu1_1
I0731 08:48:23.276283 17672 net.cpp:434] relu1_1 <- conv1_1
I0731 08:48:23.276286 17672 net.cpp:395] relu1_1 -> conv1_1 (in-place)
I0731 08:48:23.276290 17672 net.cpp:150] Setting up relu1_1
I0731 08:48:23.276293 17672 net.cpp:157] Top shape: 32 64 224 224 (102760448)
I0731 08:48:23.276295 17672 net.cpp:165] Memory required for data: 841351680
I0731 08:48:23.276298 17672 layer_factory.hpp:77] Creating layer conv1_2
I0731 08:48:23.276304 17672 net.cpp:100] Creating Layer conv1_2
I0731 08:48:23.276305 17672 net.cpp:434] conv1_2 <- conv1_1
I0731 08:48:23.276309 17672 net.cpp:408] conv1_2 -> conv1_2
I0731 08:48:23.276793 17672 net.cpp:150] Setting up conv1_2
I0731 08:48:23.276800 17672 net.cpp:157] Top shape: 32 64 224 224 (102760448)
I0731 08:48:23.276803 17672 net.cpp:165] Memory required for data: 1252393472
I0731 08:48:23.276808 17672 layer_factory.hpp:77] Creating layer relu1_2
I0731 08:48:23.276813 17672 net.cpp:100] Creating Layer relu1_2
I0731 08:48:23.276814 17672 net.cpp:434] relu1_2 <- conv1_2
I0731 08:48:23.276819 17672 net.cpp:395] relu1_2 -> conv1_2 (in-place)
I0731 08:48:23.276823 17672 net.cpp:150] Setting up relu1_2
I0731 08:48:23.276826 17672 net.cpp:157] Top shape: 32 64 224 224 (102760448)
I0731 08:48:23.276829 17672 net.cpp:165] Memory required for data: 1663435264
I0731 08:48:23.276840 17672 layer_factory.hpp:77] Creating layer pool1
I0731 08:48:23.276845 17672 net.cpp:100] Creating Layer pool1
I0731 08:48:23.276847 17672 net.cpp:434] pool1 <- conv1_2
I0731 08:48:23.276851 17672 net.cpp:408] pool1 -> pool1
I0731 08:48:23.276875 17672 net.cpp:150] Setting up pool1
I0731 08:48:23.276880 17672 net.cpp:157] Top shape: 32 64 112 112 (25690112)
I0731 08:48:23.276882 17672 net.cpp:165] Memory required for data: 1766195712
I0731 08:48:23.276885 17672 layer_factory.hpp:77] Creating layer conv2_1
I0731 08:48:23.276890 17672 net.cpp:100] Creating Layer conv2_1
I0731 08:48:23.276891 17672 net.cpp:434] conv2_1 <- pool1
I0731 08:48:23.276897 17672 net.cpp:408] conv2_1 -> conv2_1
I0731 08:48:23.277393 17672 net.cpp:150] Setting up conv2_1
I0731 08:48:23.277400 17672 net.cpp:157] Top shape: 32 128 112 112 (51380224)
I0731 08:48:23.277403 17672 net.cpp:165] Memory required for data: 1971716608
I0731 08:48:23.277410 17672 layer_factory.hpp:77] Creating layer relu2_1
I0731 08:48:23.277415 17672 net.cpp:100] Creating Layer relu2_1
I0731 08:48:23.277417 17672 net.cpp:434] relu2_1 <- conv2_1
I0731 08:48:23.277420 17672 net.cpp:395] relu2_1 -> conv2_1 (in-place)
I0731 08:48:23.277426 17672 net.cpp:150] Setting up relu2_1
I0731 08:48:23.277428 17672 net.cpp:157] Top shape: 32 128 112 112 (51380224)
I0731 08:48:23.277431 17672 net.cpp:165] Memory required for data: 2177237504
I0731 08:48:23.277432 17672 layer_factory.hpp:77] Creating layer conv2_2
I0731 08:48:23.277441 17672 net.cpp:100] Creating Layer conv2_2
I0731 08:48:23.277442 17672 net.cpp:434] conv2_2 <- conv2_1
I0731 08:48:23.277446 17672 net.cpp:408] conv2_2 -> conv2_2
I0731 08:48:23.279181 17672 net.cpp:150] Setting up conv2_2
I0731 08:48:23.279187 17672 net.cpp:157] Top shape: 32 128 112 112 (51380224)
I0731 08:48:23.279191 17672 net.cpp:165] Memory required for data: 2382758400
I0731 08:48:23.279194 17672 layer_factory.hpp:77] Creating layer relu2_2
I0731 08:48:23.279199 17672 net.cpp:100] Creating Layer relu2_2
I0731 08:48:23.279201 17672 net.cpp:434] relu2_2 <- conv2_2
I0731 08:48:23.279206 17672 net.cpp:395] relu2_2 -> conv2_2 (in-place)
I0731 08:48:23.279209 17672 net.cpp:150] Setting up relu2_2
I0731 08:48:23.279212 17672 net.cpp:157] Top shape: 32 128 112 112 (51380224)
I0731 08:48:23.279216 17672 net.cpp:165] Memory required for data: 2588279296
I0731 08:48:23.279217 17672 layer_factory.hpp:77] Creating layer pool2
I0731 08:48:23.279223 17672 net.cpp:100] Creating Layer pool2
I0731 08:48:23.279225 17672 net.cpp:434] pool2 <- conv2_2
I0731 08:48:23.279228 17672 net.cpp:408] pool2 -> pool2
I0731 08:48:23.279254 17672 net.cpp:150] Setting up pool2
I0731 08:48:23.279260 17672 net.cpp:157] Top shape: 32 128 56 56 (12845056)
I0731 08:48:23.279263 17672 net.cpp:165] Memory required for data: 2639659520
I0731 08:48:23.279264 17672 layer_factory.hpp:77] Creating layer conv3_1
I0731 08:48:23.279270 17672 net.cpp:100] Creating Layer conv3_1
I0731 08:48:23.279273 17672 net.cpp:434] conv3_1 <- pool2
I0731 08:48:23.279276 17672 net.cpp:408] conv3_1 -> conv3_1
I0731 08:48:23.279897 17672 net.cpp:150] Setting up conv3_1
I0731 08:48:23.279906 17672 net.cpp:157] Top shape: 32 256 56 56 (25690112)
I0731 08:48:23.279907 17672 net.cpp:165] Memory required for data: 2742419968
I0731 08:48:23.279914 17672 layer_factory.hpp:77] Creating layer relu3_1
I0731 08:48:23.279920 17672 net.cpp:100] Creating Layer relu3_1
I0731 08:48:23.279922 17672 net.cpp:434] relu3_1 <- conv3_1
I0731 08:48:23.279927 17672 net.cpp:395] relu3_1 -> conv3_1 (in-place)
I0731 08:48:23.279930 17672 net.cpp:150] Setting up relu3_1
I0731 08:48:23.279934 17672 net.cpp:157] Top shape: 32 256 56 56 (25690112)
I0731 08:48:23.279937 17672 net.cpp:165] Memory required for data: 2845180416
I0731 08:48:23.279938 17672 layer_factory.hpp:77] Creating layer conv3_2
I0731 08:48:23.279943 17672 net.cpp:100] Creating Layer conv3_2
I0731 08:48:23.279945 17672 net.cpp:434] conv3_2 <- conv3_1
I0731 08:48:23.279949 17672 net.cpp:408] conv3_2 -> conv3_2
I0731 08:48:23.280915 17672 net.cpp:150] Setting up conv3_2
I0731 08:48:23.280923 17672 net.cpp:157] Top shape: 32 256 56 56 (25690112)
I0731 08:48:23.280925 17672 net.cpp:165] Memory required for data: 2947940864
I0731 08:48:23.280930 17672 layer_factory.hpp:77] Creating layer relu3_2
I0731 08:48:23.280936 17672 net.cpp:100] Creating Layer relu3_2
I0731 08:48:23.280938 17672 net.cpp:434] relu3_2 <- conv3_2
I0731 08:48:23.280941 17672 net.cpp:395] relu3_2 -> conv3_2 (in-place)
I0731 08:48:23.280946 17672 net.cpp:150] Setting up relu3_2
I0731 08:48:23.280949 17672 net.cpp:157] Top shape: 32 256 56 56 (25690112)
I0731 08:48:23.280951 17672 net.cpp:165] Memory required for data: 3050701312
I0731 08:48:23.280954 17672 layer_factory.hpp:77] Creating layer conv3_3
I0731 08:48:23.280961 17672 net.cpp:100] Creating Layer conv3_3
I0731 08:48:23.280963 17672 net.cpp:434] conv3_3 <- conv3_2
I0731 08:48:23.280967 17672 net.cpp:408] conv3_3 -> conv3_3
I0731 08:48:23.281921 17672 net.cpp:150] Setting up conv3_3
I0731 08:48:23.281930 17672 net.cpp:157] Top shape: 32 256 56 56 (25690112)
I0731 08:48:23.281934 17672 net.cpp:165] Memory required for data: 3153461760
I0731 08:48:23.281937 17672 layer_factory.hpp:77] Creating layer relu3_3
I0731 08:48:23.281942 17672 net.cpp:100] Creating Layer relu3_3
I0731 08:48:23.281944 17672 net.cpp:434] relu3_3 <- conv3_3
I0731 08:48:23.281949 17672 net.cpp:395] relu3_3 -> conv3_3 (in-place)
I0731 08:48:23.281954 17672 net.cpp:150] Setting up relu3_3
I0731 08:48:23.281956 17672 net.cpp:157] Top shape: 32 256 56 56 (25690112)
I0731 08:48:23.281958 17672 net.cpp:165] Memory required for data: 3256222208
I0731 08:48:23.281961 17672 layer_factory.hpp:77] Creating layer pool3
I0731 08:48:23.281965 17672 net.cpp:100] Creating Layer pool3
I0731 08:48:23.281967 17672 net.cpp:434] pool3 <- conv3_3
I0731 08:48:23.281972 17672 net.cpp:408] pool3 -> pool3
I0731 08:48:23.281998 17672 net.cpp:150] Setting up pool3
I0731 08:48:23.282007 17672 net.cpp:157] Top shape: 32 256 28 28 (6422528)
I0731 08:48:23.282009 17672 net.cpp:165] Memory required for data: 3281912320
I0731 08:48:23.282011 17672 layer_factory.hpp:77] Creating layer conv4_1
I0731 08:48:23.282017 17672 net.cpp:100] Creating Layer conv4_1
I0731 08:48:23.282019 17672 net.cpp:434] conv4_1 <- pool3
I0731 08:48:23.282024 17672 net.cpp:408] conv4_1 -> conv4_1
I0731 08:48:23.283746 17672 net.cpp:150] Setting up conv4_1
I0731 08:48:23.283759 17672 net.cpp:157] Top shape: 32 512 28 28 (12845056)
I0731 08:48:23.283762 17672 net.cpp:165] Memory required for data: 3333292544
I0731 08:48:23.283767 17672 layer_factory.hpp:77] Creating layer relu4_1
I0731 08:48:23.283773 17672 net.cpp:100] Creating Layer relu4_1
I0731 08:48:23.283776 17672 net.cpp:434] relu4_1 <- conv4_1
I0731 08:48:23.283779 17672 net.cpp:395] relu4_1 -> conv4_1 (in-place)
I0731 08:48:23.283785 17672 net.cpp:150] Setting up relu4_1
I0731 08:48:23.283788 17672 net.cpp:157] Top shape: 32 512 28 28 (12845056)
I0731 08:48:23.283790 17672 net.cpp:165] Memory required for data: 3384672768
I0731 08:48:23.283792 17672 layer_factory.hpp:77] Creating layer conv4_2
I0731 08:48:23.283798 17672 net.cpp:100] Creating Layer conv4_2
I0731 08:48:23.283802 17672 net.cpp:434] conv4_2 <- conv4_1
I0731 08:48:23.283805 17672 net.cpp:408] conv4_2 -> conv4_2
I0731 08:48:23.287196 17672 net.cpp:150] Setting up conv4_2
I0731 08:48:23.287214 17672 net.cpp:157] Top shape: 32 512 28 28 (12845056)
I0731 08:48:23.287216 17672 net.cpp:165] Memory required for data: 3436052992
I0731 08:48:23.287226 17672 layer_factory.hpp:77] Creating layer relu4_2
I0731 08:48:23.287232 17672 net.cpp:100] Creating Layer relu4_2
I0731 08:48:23.287236 17672 net.cpp:434] relu4_2 <- conv4_2
I0731 08:48:23.287241 17672 net.cpp:395] relu4_2 -> conv4_2 (in-place)
I0731 08:48:23.287247 17672 net.cpp:150] Setting up relu4_2
I0731 08:48:23.287250 17672 net.cpp:157] Top shape: 32 512 28 28 (12845056)
I0731 08:48:23.287252 17672 net.cpp:165] Memory required for data: 3487433216
I0731 08:48:23.287255 17672 layer_factory.hpp:77] Creating layer conv4_3
I0731 08:48:23.287276 17672 net.cpp:100] Creating Layer conv4_3
I0731 08:48:23.287279 17672 net.cpp:434] conv4_3 <- conv4_2
I0731 08:48:23.287283 17672 net.cpp:408] conv4_3 -> conv4_3
I0731 08:48:23.290794 17672 net.cpp:150] Setting up conv4_3
I0731 08:48:23.290815 17672 net.cpp:157] Top shape: 32 512 28 28 (12845056)
I0731 08:48:23.290819 17672 net.cpp:165] Memory required for data: 3538813440
I0731 08:48:23.290827 17672 layer_factory.hpp:77] Creating layer relu4_3
I0731 08:48:23.290837 17672 net.cpp:100] Creating Layer relu4_3
I0731 08:48:23.290843 17672 net.cpp:434] relu4_3 <- conv4_3
I0731 08:48:23.290849 17672 net.cpp:395] relu4_3 -> conv4_3 (in-place)
I0731 08:48:23.290859 17672 net.cpp:150] Setting up relu4_3
I0731 08:48:23.290864 17672 net.cpp:157] Top shape: 32 512 28 28 (12845056)
I0731 08:48:23.290868 17672 net.cpp:165] Memory required for data: 3590193664
I0731 08:48:23.290871 17672 layer_factory.hpp:77] Creating layer pool4
I0731 08:48:23.290879 17672 net.cpp:100] Creating Layer pool4
I0731 08:48:23.290882 17672 net.cpp:434] pool4 <- conv4_3
I0731 08:48:23.290889 17672 net.cpp:408] pool4 -> pool4
I0731 08:48:23.290930 17672 net.cpp:150] Setting up pool4
I0731 08:48:23.290937 17672 net.cpp:157] Top shape: 32 512 14 14 (3211264)
I0731 08:48:23.290940 17672 net.cpp:165] Memory required for data: 3603038720
I0731 08:48:23.290944 17672 layer_factory.hpp:77] Creating layer conv5_1
I0731 08:48:23.290954 17672 net.cpp:100] Creating Layer conv5_1
I0731 08:48:23.290957 17672 net.cpp:434] conv5_1 <- pool4
I0731 08:48:23.290966 17672 net.cpp:408] conv5_1 -> conv5_1
I0731 08:48:23.294570 17672 net.cpp:150] Setting up conv5_1
I0731 08:48:23.294589 17672 net.cpp:157] Top shape: 32 512 14 14 (3211264)
I0731 08:48:23.294592 17672 net.cpp:165] Memory required for data: 3615883776
I0731 08:48:23.294597 17672 layer_factory.hpp:77] Creating layer relu5_1
I0731 08:48:23.294605 17672 net.cpp:100] Creating Layer relu5_1
I0731 08:48:23.294607 17672 net.cpp:434] relu5_1 <- conv5_1
I0731 08:48:23.294611 17672 net.cpp:395] relu5_1 -> conv5_1 (in-place)
I0731 08:48:23.294617 17672 net.cpp:150] Setting up relu5_1
I0731 08:48:23.294620 17672 net.cpp:157] Top shape: 32 512 14 14 (3211264)
I0731 08:48:23.294622 17672 net.cpp:165] Memory required for data: 3628728832
I0731 08:48:23.294625 17672 layer_factory.hpp:77] Creating layer conv5_2
I0731 08:48:23.294631 17672 net.cpp:100] Creating Layer conv5_2
I0731 08:48:23.294633 17672 net.cpp:434] conv5_2 <- conv5_1
I0731 08:48:23.294636 17672 net.cpp:408] conv5_2 -> conv5_2
I0731 08:48:23.297727 17672 net.cpp:150] Setting up conv5_2
I0731 08:48:23.297747 17672 net.cpp:157] Top shape: 32 512 14 14 (3211264)
I0731 08:48:23.297750 17672 net.cpp:165] Memory required for data: 3641573888
I0731 08:48:23.297755 17672 layer_factory.hpp:77] Creating layer relu5_2
I0731 08:48:23.297762 17672 net.cpp:100] Creating Layer relu5_2
I0731 08:48:23.297766 17672 net.cpp:434] relu5_2 <- conv5_2
I0731 08:48:23.297771 17672 net.cpp:395] relu5_2 -> conv5_2 (in-place)
I0731 08:48:23.297778 17672 net.cpp:150] Setting up relu5_2
I0731 08:48:23.297781 17672 net.cpp:157] Top shape: 32 512 14 14 (3211264)
I0731 08:48:23.297783 17672 net.cpp:165] Memory required for data: 3654418944
I0731 08:48:23.297786 17672 layer_factory.hpp:77] Creating layer conv5_3
I0731 08:48:23.297791 17672 net.cpp:100] Creating Layer conv5_3
I0731 08:48:23.297793 17672 net.cpp:434] conv5_3 <- conv5_2
I0731 08:48:23.297797 17672 net.cpp:408] conv5_3 -> conv5_3
I0731 08:48:23.301250 17672 net.cpp:150] Setting up conv5_3
I0731 08:48:23.301270 17672 net.cpp:157] Top shape: 32 512 14 14 (3211264)
I0731 08:48:23.301273 17672 net.cpp:165] Memory required for data: 3667264000
I0731 08:48:23.301278 17672 layer_factory.hpp:77] Creating layer relu5_3
I0731 08:48:23.301286 17672 net.cpp:100] Creating Layer relu5_3
I0731 08:48:23.301290 17672 net.cpp:434] relu5_3 <- conv5_3
I0731 08:48:23.301295 17672 net.cpp:395] relu5_3 -> conv5_3 (in-place)
I0731 08:48:23.301302 17672 net.cpp:150] Setting up relu5_3
I0731 08:48:23.301306 17672 net.cpp:157] Top shape: 32 512 14 14 (3211264)
I0731 08:48:23.301322 17672 net.cpp:165] Memory required for data: 3680109056
I0731 08:48:23.301324 17672 layer_factory.hpp:77] Creating layer pool5
I0731 08:48:23.301332 17672 net.cpp:100] Creating Layer pool5
I0731 08:48:23.301336 17672 net.cpp:434] pool5 <- conv5_3
I0731 08:48:23.301338 17672 net.cpp:408] pool5 -> pool5
I0731 08:48:23.301373 17672 net.cpp:150] Setting up pool5
I0731 08:48:23.301378 17672 net.cpp:157] Top shape: 32 512 7 7 (802816)
I0731 08:48:23.301379 17672 net.cpp:165] Memory required for data: 3683320320
I0731 08:48:23.301381 17672 layer_factory.hpp:77] Creating layer fc6
I0731 08:48:23.301385 17672 net.cpp:100] Creating Layer fc6
I0731 08:48:23.301388 17672 net.cpp:434] fc6 <- pool5
I0731 08:48:23.301391 17672 net.cpp:408] fc6 -> fc6
I0731 08:48:23.431159 17672 net.cpp:150] Setting up fc6
I0731 08:48:23.431190 17672 net.cpp:157] Top shape: 32 4096 (131072)
I0731 08:48:23.431192 17672 net.cpp:165] Memory required for data: 3683844608
I0731 08:48:23.431200 17672 layer_factory.hpp:77] Creating layer relu6
I0731 08:48:23.431207 17672 net.cpp:100] Creating Layer relu6
I0731 08:48:23.431210 17672 net.cpp:434] relu6 <- fc6
I0731 08:48:23.431216 17672 net.cpp:395] relu6 -> fc6 (in-place)
I0731 08:48:23.431221 17672 net.cpp:150] Setting up relu6
I0731 08:48:23.431223 17672 net.cpp:157] Top shape: 32 4096 (131072)
I0731 08:48:23.431226 17672 net.cpp:165] Memory required for data: 3684368896
I0731 08:48:23.431227 17672 layer_factory.hpp:77] Creating layer drop6
I0731 08:48:23.431232 17672 net.cpp:100] Creating Layer drop6
I0731 08:48:23.431236 17672 net.cpp:434] drop6 <- fc6
I0731 08:48:23.431238 17672 net.cpp:395] drop6 -> fc6 (in-place)
I0731 08:48:23.431254 17672 net.cpp:150] Setting up drop6
I0731 08:48:23.431258 17672 net.cpp:157] Top shape: 32 4096 (131072)
I0731 08:48:23.431260 17672 net.cpp:165] Memory required for data: 3684893184
I0731 08:48:23.431262 17672 layer_factory.hpp:77] Creating layer fc7
I0731 08:48:23.431267 17672 net.cpp:100] Creating Layer fc7
I0731 08:48:23.431270 17672 net.cpp:434] fc7 <- fc6
I0731 08:48:23.431273 17672 net.cpp:408] fc7 -> fc7
I0731 08:48:23.451455 17672 net.cpp:150] Setting up fc7
I0731 08:48:23.451490 17672 net.cpp:157] Top shape: 32 4096 (131072)
I0731 08:48:23.451493 17672 net.cpp:165] Memory required for data: 3685417472
I0731 08:48:23.451499 17672 layer_factory.hpp:77] Creating layer relu7
I0731 08:48:23.451508 17672 net.cpp:100] Creating Layer relu7
I0731 08:48:23.451510 17672 net.cpp:434] relu7 <- fc7
I0731 08:48:23.451515 17672 net.cpp:395] relu7 -> fc7 (in-place)
I0731 08:48:23.451521 17672 net.cpp:150] Setting up relu7
I0731 08:48:23.451524 17672 net.cpp:157] Top shape: 32 4096 (131072)
I0731 08:48:23.451526 17672 net.cpp:165] Memory required for data: 3685941760
I0731 08:48:23.451529 17672 layer_factory.hpp:77] Creating layer drop7
I0731 08:48:23.451534 17672 net.cpp:100] Creating Layer drop7
I0731 08:48:23.451535 17672 net.cpp:434] drop7 <- fc7
I0731 08:48:23.451539 17672 net.cpp:395] drop7 -> fc7 (in-place)
I0731 08:48:23.451556 17672 net.cpp:150] Setting up drop7
I0731 08:48:23.451561 17672 net.cpp:157] Top shape: 32 4096 (131072)
I0731 08:48:23.451563 17672 net.cpp:165] Memory required for data: 3686466048
I0731 08:48:23.451565 17672 layer_factory.hpp:77] Creating layer fc8_10
I0731 08:48:23.451570 17672 net.cpp:100] Creating Layer fc8_10
I0731 08:48:23.451571 17672 net.cpp:434] fc8_10 <- fc7
I0731 08:48:23.451575 17672 net.cpp:408] fc8_10 -> fc8_10
I0731 08:48:23.451674 17672 net.cpp:150] Setting up fc8_10
I0731 08:48:23.451678 17672 net.cpp:157] Top shape: 32 10 (320)
I0731 08:48:23.451680 17672 net.cpp:165] Memory required for data: 3686467328
I0731 08:48:23.451699 17672 layer_factory.hpp:77] Creating layer fc8_10_fc8_10_0_split
I0731 08:48:23.451702 17672 net.cpp:100] Creating Layer fc8_10_fc8_10_0_split
I0731 08:48:23.451704 17672 net.cpp:434] fc8_10_fc8_10_0_split <- fc8_10
I0731 08:48:23.451709 17672 net.cpp:408] fc8_10_fc8_10_0_split -> fc8_10_fc8_10_0_split_0
I0731 08:48:23.451712 17672 net.cpp:408] fc8_10_fc8_10_0_split -> fc8_10_fc8_10_0_split_1
I0731 08:48:23.451726 17672 net.cpp:408] fc8_10_fc8_10_0_split -> fc8_10_fc8_10_0_split_2
I0731 08:48:23.451757 17672 net.cpp:150] Setting up fc8_10_fc8_10_0_split
I0731 08:48:23.451761 17672 net.cpp:157] Top shape: 32 10 (320)
I0731 08:48:23.451764 17672 net.cpp:157] Top shape: 32 10 (320)
I0731 08:48:23.451766 17672 net.cpp:157] Top shape: 32 10 (320)
I0731 08:48:23.451768 17672 net.cpp:165] Memory required for data: 3686471168
I0731 08:48:23.451771 17672 layer_factory.hpp:77] Creating layer loss
I0731 08:48:23.451776 17672 net.cpp:100] Creating Layer loss
I0731 08:48:23.451777 17672 net.cpp:434] loss <- fc8_10_fc8_10_0_split_0
I0731 08:48:23.451781 17672 net.cpp:434] loss <- label_data_1_split_0
I0731 08:48:23.451783 17672 net.cpp:408] loss -> loss/loss
…
